checkpoints/dlinear_trend.pth (torch, 850712 bytes, 14 tensors)

Linear_Trend.0.weight f4 [200, 150]
-0.047643606 -0.014228234 0.007290961 0.02298837 0.030645533 0.03265712 0.028466329 0.019437367
0.006366456 -0.006443243 -0.021968346 -0.031953283 -0.03296512 -0.026257718 -0.02086627 -0.014922244
-0.006660985 0.00055807905 0.009361811 0.015600373 0.02209492 0.0198983 0.014792294 0.008697669
-0.00087210495 -0.0059644547 -0.009617329 -0.0046489257 -0.0030658892 -0.0024681692 -0.0003901657 0.0023400972
0.003413682 0.0059471386 0.0041506384 0.0030654503 -0.006284777 -0.017373713 -0.022076597 -0.028360114
-0.032987423 -0.026494358 -0.003117043 0.021603756 0.040715706 0.053129025 0.057585888 0.053425822
0.045080602 0.029804457 0.0031466407 -0.020147149 -0.04307946 -0.063851885 -0.07752043 -0.08734747
-0.09202174 -0.08438325 -0.06855008 -0.04965484 -0.020565014 0.015854008 0.051548604 0.08117489
0.10445532 0.121225365 0.123056844 0.10599399 0.082752965 0.05841574 0.037086952 0.024524445
0.012463769 -0.003083057 -0.018154847 -0.022690158 -0.03306244 -0.05006201 -0.062665604 -0.07176936
-0.079005554 -0.08135711 -0.08533091 -0.08666189 -0.076280996 -0.06256636 -0.040029168 -0.010103927
0.023614367 0.05081705 0.07544531 0.09389617 0.102014996 0.104823254 0.103187315 0.095269516
0.08081539 0.063128315 0.04698217 0.0285843 0.007099514 -0.0110292705 -0.028605536 -0.049921077
-0.07303747 -0.09245427 -0.11044697 -0.119048275 -0.12131916 -0.1130508 -0.09835826 -0.07906715
-0.057907447 -0.028913647 0.0074132774 0.043502953 0.077630326 0.10501499 0.12580384 0.13722524
0.14256518 0.14284374 0.13651717 0.12036633 0.10017613 0.06937696 0.02580886 -0.009668026
-0.045778964 -0.08228208 -0.12213177 -0.15252583 -0.18141463 -0.20143189 -0.20235768 -0.16389193
-0.1039863 -0.056833852 -0.030020101 -0.014135089 -0.0055075227 0.0008930165 0.012952872 0.033481523
0.06946458 0.11978001 0.18769325 0.27751797 0.38619557 0.5162216 -0.06705341 -0.0277617
0.0010562295 0.020241505 0.033470858 0.040008415 0.040721737 0.035505082 0.02493129 0.011505999
-0.0043629934 -0.021322232 -0.030630987 -0.031030633 -0.034156386 -0.034108937 -0.029633187 -0.022424677
-0.013220808 -0.0020555512 0.009196706 0.016972134 0.016744161 0.013987254 0.0074818605 -0.00040234093
-0.0040120753 -0.0011047224 0.006984193 0.011281121 0.015417047 0.021282641 0.025754033 0.028760374
0.028973684 0.025258347 0.016155671 -0.0030385216 -0.022872284 -0.040250584 -0.057791848 -0.068625264
-0.05657726 -0.028484194 0.0009652325 0.025576096 0.043334395 0.051590566 0.05247008 0.04765716
0.03020113 0.0041334773 -0.020206856 -0.044742815 -0.06513383 -0.07961824 -0.0910901 -0.09296542
-0.08076757 -0.061778784 -0.035658907 0.0028630826 0.047865056 0.08906637 0.1219084 0.14689203
0.15915225 0.14796849 0.116544135 0.07893852 0.041932944 0.014079751 -0.0038841893 -0.021044068
-0.038966186 -0.04723697 -0.047312286 -0.05591613 -0.06754202 -0.07387197 -0.07727893 -0.07735133
-0.078621514 -0.08110658 -0.077343665 -0.06327658 -0.043428894 -0.0153849255 0.02064257 0.055736642
0.084193155 0.1071048 0.11890705 0.1196238 0.114212975 0.10286493 0.083863415 0.059517365
0.03555482 0.014088484 -0.008577586 -0.029118134 -0.043426387 -0.057623822 -0.07557133 -0.09333402
00000000: f125 43bd 8a1d 69bc 04e9 ee3b 1b52 bc3c
00000010: 570c fb3c 79c3 053d 3832 e93c 1d3b 9f3c
00000020: b49d d03b d721 d3bb f6f6 b3bc 72e1 02bd
00000030: 6f06 07bd 6d1a d7bc bdef aabc 6d7c 74bc
00000040: 6444 dabb 0d4c 123a 4862 193c b598 7f3c
00000050: 6800 b53c c201 a33c 615b 723c ab80 0e3c
00000060: f99d 64ba 7971 c3bb 0092 1dbc 0456 98bb
00000070: 16ed 48bb 02c1 21bb 278f ccb9 515c 193b
00000080: 15b8 5f3b 37e0 c23b 1402 883b b9e5 483b
00000090: 88f0 cdbb 5153 8ebc fbd9 b4bc 7853 e8bc
000000a0: d21d 07bd b20a d9bc 4e47 4cbb 5cfa b03c
000000b0: 83c5 263d d29d 593d 2edf 6b3d 09d5 5a3d
000000c0: 70a6 383d 7a28 f43c df37 4e3b a20b a5bc
000000d0: 1674 30bd c7c4 82bd 08c3 9ebd 3be3 b2bd
000000e0: e575 bcbd 20d1 acbd fc63 8cbd e062 4bbd
000000f0: f677 a8bc 44e0 813c a124 533d 053f a63d
00000100: acec d53d 0145 f83d 3a05 fc3d 6113 d93d
00000110: 637a a93d 5845 6f3d 7de8 173d 7de7 c83c
00000120: d634 4c3c 1d0d 4abb 79b9 94bc b6e0 b9bc
00000130: 7b6c 07bd d20d 4dbd d356 80bd d0fb 92bd
00000140: aacd a1bd 8e9e a6bd f9c1 aebd ca7b b1bd
00000150: 3639 9cbd cb22 80bd a0f5 23bd f18a 25bc
00000160: eb72 c13c 8a25 503d 1283 9a3d a34c c03d
00000170: 3ded d03d 93ad d63d df53 d33d aa1c c33d
00000180: 8a82 a53d 6b49 813d 6070 403d 9f29 ea3c
00000190: 0aa3 e83b 1db4 34bc 2856 eabc 0b7a 4cbd
000001a0: ab94 95bd aa58 bdbd 0532 e2bd 95cf f3bd
000001b0: 2e76 f8bd 2e87 e7bd 0e70 c9bd f5ed a1bd
000001c0: 5c30 6dbd 50dc ecbc 14eb f23b 2730 323d
000001d0: a6fc 9e3d 1912 d73d b9d2 003e c684 0c3e
000001e0: 9bfc 113e a145 123e 28cb 0b3e 9f82 f63d
000001f0: 2529 cd3d 8215 8e3d 1a6d d33c a466 1ebc
00000200: b982 3bbd 8283 a8bd 3920 fabd bb2f 1cbe
00000210: c2c4 39be 2944 4ebe da36 4fbe 49d3 27be
00000220: c5f6 d4bd 9dca 68bd b7ec f5bc dc96 67bc
00000230: 7378 b4bb 5319 6a3a 4838 543c ec23 093d
00000240: 7243 8e3d 394f f53d a932 403e d616 8e3e
00000250: 6dbb c53e 1927 043f 4c53 89bd 816c e3bc
00000260: 2e71 8a3a 83d1 a53c bd18 093d dddf 233d
00000270: d6cb 263d c76d 113d b43c cc3c a883 3c3c
00000280: 71f7 8ebb f6ab aebc d6ed fabc f433 febc
00000290: 91e7 0bbd d0b5 0bbd 4cc1 f2bc f5b3 b7bc
000002a0: 169c 58bc 6db6 06bb c8ad 163c 2509 8b3c
000002b0: 0d2b 893c cc2a 653c 652a f53b 49f1 d2b9
000002c0: ba77 83bb 55cc 90ba a8db e43b 73d4 383c
000002d0: c897 7c3c ef58 ae3c 1ffa d23c e09a eb3c
000002e0: 385a ed3c 98ea ce3c e658 843c ef21 47bb
000002f0: a85e bbbc ccdd 24bd 25b7 6cbd 678b 8cbd
00000300: 8fbd 67bd af57 e9bc a807 7d3a f684 d13c
00000310: 687f 313d a150 533d deea 563d 2734 433d
00000320: 5c68 f73c 1f72 873b d988 a5bc 3e44 37bd
00000330: e364 85bd e30e a3bd 728d babd a764 bebd
00000340: 7869 a5bd c00b 7dbd 130f 12bd 8ea2 3b3b
00000350: 260e 443d 6e68 b63d 1cab f93d dd6a 163e
00000360: cff8 223e 0d85 173e b1ae ee3d 85aa a13d
00000370: e1c1 2b3d c2ae 663c e28d 7ebb 9c64 acbc
00000380: 029b 1fbd 8e7b 41bd 87ca 41bd 5008 65bd
00000390: 7853 8abd 304a 97bd 6a44 9ebd 606a 9ebd
000003a0: 5104 a1bd 351b a6bd 5b66 9ebd 2797 81bd
000003b0: 7fe2 31bd 0e11 7cbc 9b1a a93c 1b4c 643d
000003c0: 766d ac3d c359 db3d 8a85 f33d 53fd f43d
000003d0: 7ee8 e93d d9aa d23d 95c0 ab3d 7bc8 733d
000003e0: eea1 113d 63d3 663c 0189 0cbc 2789 eebc
000003f0: dedf 31bd f506 6cbd 24c5 9abd e825 bfbd

Linear_Trend.0.bias f4 [200]
0.113642186 0.18596803 0.25495765 0.3290358 0.4034051 0.47102654 0.53670895 0.6020537
0.66285324 0.7234973 0.77821064 0.833438 0.88695693 0.93513685 0.9836192 1.0283338
1.0713027 1.11116 1.1504364 1.1856043 1.217852 1.2491779 1.2784617 1.3041618
1.3266264 1.3470817 1.3622893 1.3777043 1.3868821 1.3982316 1.4044049 1.4100779
1.4106783 1.4095701 1.405551 1.3936749 1.3802975 1.3623725 1.3435085 1.3208172
1.3028737 1.2838224 1.2674285 1.2583969 1.2572215 1.2579992 1.2604167 1.2667527
1.2734938 1.2750942 1.2800096 1.2811178 1.2863382 1.2906489 1.2962271 1.2983459
1.2995996 1.3043584 1.3052101 1.3092445 1.3119626 1.3097563 1.3098476 1.3071408
1.2995921 1.2956933 1.2895604 1.287001 1.2837933 1.2812419 1.2832006 1.2883006
1.2888027 1.2938862 1.2977066 1.2958186 1.2987431 1.3003688 1.2999307 1.2965999
1.2964098 1.2991427 1.298219 1.2980335 1.3006047 1.3014911 1.3048857 1.3108699
1.3100455 1.3164276 1.3251677 1.3346801 1.3429122 1.3575367 1.3774244 1.4007602
1.4347029 1.4723718 1.5099269 1.5545175 1.5972704 1.636914 1.6779767 1.7181776
1.7506567 1.7858516 1.8188924 1.8488681 1.8767182 1.9017309 1.926745 1.9503812
1.9707292 1.9907435 2.007047 2.0247278 2.0394902 2.0508249 2.060906 2.062621
2.0689652 2.067495 2.0704043 2.0650706 2.0636334 2.0593522 2.0521564 2.0405054
2.0299845 2.015267 1.9996895 1.9800247 1.9564241 1.9355798 1.9095579 1.8826432
1.8600582 1.83524 1.8126049 1.8021802 1.7934926 1.7938613 1.7872533 1.7888361
1.7905707 1.79261 1.7934026 1.7914652 1.792541 1.7911115 1.7919761 1.7939779
1.7950634 1.7958795 1.7952133 1.7971117 1.7961961 1.7987962 1.7963978 1.7973005
1.7934008 1.7877579 1.7836806 1.783832 1.7853959 1.7842414 1.7863349 1.7905263
1.7984599 1.8071556 1.8152792 1.821037 1.8255379 1.8290378 1.8294512 1.8280432
1.8303279 1.8275956 1.8318076 1.831673 1.8347363 1.8352368 1.8363304 1.8401363
1.8439438 1.8508984 1.8514622 1.856107 1.8610587 1.8741957 1.8889256 1.9090501
1.937386 1.9684323 2.0065167 2.043661 2.0786939 2.1111054 2.1414068 2.17194
00000000: 3cbd e83d 676e 3e3e cf89 823e 6177 a83e
00000010: 1d8b ce3e 642a f13e c265 093f 3120 1a3f
00000020: c0b0 293f 1e37 393f d038 473f 315c 553f
00000030: 9c0f 633f 2165 6f3f 78ce 7b3f 71a0 833f
00000040: 7220 893f 7e3a 8e3f 8041 933f e2c1 973f
00000050: 93e2 9b3f 10e5 9f3f a2a4 a33f c6ee a63f
00000060: e5ce a93f 2c6d ac3f 7f5f ae3f 9d58 b03f
00000070: 5a85 b13f 41f9 b23f 8ac3 b33f 6f7d b43f
00000080: 1b91 b43f cb6c b43f 18e9 b33f f063 b23f
00000090: 97ad b03f 3962 ae3f 16f8 ab3f 8a10 a93f
000000a0: 91c4 a63f 4b54 a43f 193b a23f 2613 a13f
000000b0: a2ec a03f 1e06 a13f 5655 a13f f424 a23f
000000c0: d801 a33f 4936 a33f 5bd7 a33f abfb a33f
000000d0: bba6 a43f fc33 a53f c5ea a53f 3330 a63f
000000e0: 4859 a63f 37f5 a63f 2011 a73f 5395 a73f
000000f0: 64ee a73f 18a6 a73f 16a9 a73f 6450 a73f
00000100: 0959 a63f 47d9 a53f 5110 a53f 73bc a43f
00000110: 5753 a43f bcff a33f eb3f a43f 09e7 a43f
00000120: 7df7 a43f 109e a53f 401b a63f 62dd a53f
00000130: 373d a63f 7c72 a63f 2164 a63f fcf6 a53f
00000140: c2f0 a53f 4f4a a63f 0a2c a63f f625 a63f
00000150: 377a a63f 4397 a63f 7f06 a73f 96ca a73f
00000160: 92af a73f b380 a83f 189f a93f ccd6 aa3f
00000170: 8ce4 ab3f c3c3 ad3f 714f b03f 1c4c b33f
00000180: 58a4 b73f ae76 bc3f 4945 c13f 6efa c63f
00000190: 5b73 cc3f 6686 d13f f1c7 d63f 3eed db3f
000001a0: 8515 e03f c996 e43f 77d1 e83f b6a7 ec3f
000001b0: 4d38 f03f eb6b f33f 959f f63f 17a6 f93f
000001c0: db40 fc3f afd0 fe3f 7573 0040 2495 0140
000001d0: 0287 0240 b740 0340 e2e5 0340 fc01 0440
000001e0: ed69 0440 d751 0440 8181 0440 1e2a 0440
000001f0: 9212 0440 6dcc 0340 8856 0340 a497 0240
00000200: 44eb 0140 22fa 0040 d3f5 ff3f 7371 fd3f
00000210: 1b6c fa3f 14c1 f73f 656c f43f 74fa f03f
00000220: 6316 ee3f 25e9 ea3f 7003 e83f d7ad e63f
00000230: 2a91 e53f 3f9d e53f b7c4 e43f 95f8 e43f
00000240: 6c31 e53f 3f74 e53f 378e e53f bb4e e53f
00000250: fc71 e53f 2443 e53f 795f e53f 11a1 e53f
00000260: a3c4 e53f 61df e53f 8dc9 e53f c207 e63f
00000270: c1e9 e53f f43e e63f 5df0 e53f f10d e63f
00000280: 288e e53f 40d5 e43f a54f e43f 9b54 e43f
00000290: da87 e43f 0662 e43f 9fa6 e43f f72f e53f
000002a0: ef33 e63f e050 e73f 125b e83f be17 e93f
000002b0: 3aab e93f e91d ea3f 752b ea3f 52fd e93f
000002c0: 2f48 ea3f a7ee e93f ac78 ea3f 4374 ea3f
000002d0: a4d8 ea3f 0ae9 ea3f e00c eb3f 9689 eb3f
000002e0: 5a06 ec3f 3dea ec3f b7fc ec3f ea94 ed3f
000002f0: 2c37 ee3f a5e5 ef3f 50c8 f13f c15b f43f
00000300: 44fc f73f 97f5 fb3f c56a 0040 58cb 0240
00000310: 5209 0540 5a1c 0740 cf0c 0940 1101 0b40

Linear_Trend.1.weight f4 [200, 150]
0.0016273394 -0.0015772387 -0.004464028 -0.0063733677 -0.005953648 -0.0010923102 0.007021013 0.011591054
0.012411169 0.010114595 0.0081476 0.0025528658 -0.0047848397 -0.0042970837 -0.0076179593 -0.012818726
-0.015276562 -0.01556929 -0.016633559 -0.010090503 -0.006478989 0.0011542484 0.0004882303 -0.00049727166
0.00057780696 -0.0022367483 -0.001832933 0.0035148268 0.010815946 0.019225791 0.024835045 0.024228046
0.025189612 0.01989509 0.019031074 0.01415624 0.0003833848 -0.010081117 -0.026104316 -0.033665184
-0.037622936 -0.039787844 -0.01945108 -0.0010499334 0.0043138163 0.010332463 0.008404011 0.0052246475
-0.0037393873 -0.009714028 -0.014675068 -0.017675217 -0.023679936 -0.02433647 -0.024300717 -0.025314696
-0.019664727 -0.011750034 0.0023138593 0.009551886 0.017780086 0.032215685 0.045865286 0.0606794
0.073310144 0.08257153 0.0838384 0.060442742 0.03997688 0.020865018 6.2261315e-05 -0.018938575
-0.023890095 -0.030926786 -0.03596408 -0.03695882 -0.037398797 -0.03522448 -0.036536865 -0.033302262
-0.030323625 -0.03401403 -0.035733387 -0.03447322 -0.027167933 -0.02193988 -0.0053052036 0.011400238
0.024550375 0.03761257 0.045993958 0.049260616 0.051193263 0.049389858 0.05407274 0.046414938
0.037618294 0.027267441 0.01658133 0.0077015394 0.001284393 -0.006141034 -0.011268349 -0.021482525
-0.041004788 -0.056151334 -0.069134794 -0.08126114 -0.08642901 -0.08418247 -0.06975428 -0.05404464
-0.036369704 -0.014363311 0.0057697236 0.031636946 0.056115355 0.07508687 0.09139025 0.09822027
0.10289074 0.104699574 0.09782192 0.09310169 0.07799834 0.052989826 0.019897828 -0.01651317
-0.04878628 -0.08168369 -0.11408838 -0.13690631 -0.1565702 -0.16775526 -0.15424158 -0.103032574
-0.041368987 -0.025917245 -0.014662135 -0.004776954 0.002240655 0.01601916 0.033624995 0.056385696
0.08823619 0.13424364 0.18725012 0.24789952 0.31308627 0.38615268 0.014921213 0.008409844
0.001151191 -0.005353662 -0.009840602 -0.009428707 -0.0021024917 0.0072768168 0.012361014 0.01323006
0.011765356 0.00846961 -0.00039381953 -0.006586684 -0.009496452 -0.015092174 -0.020266298 -0.022158222
-0.02358718 -0.020365179 -0.011723053 -0.0023341277 0.0063420217 0.006274085 0.0070032193 0.0064292247
0.0033095165 0.0048974357 0.012038034 0.022561595 0.033048254 0.03764209 0.03771291 0.034927774
0.028714838 0.025681365 0.013189006 -0.005102068 -0.025133988 -0.0464344 -0.058457326 -0.06861326
-0.062522456 -0.03390797 -0.013583991 -0.0024546394 0.0056714113 0.006288087 0.0030665037 -0.0038149133
-0.008229932 -0.010864353 -0.013820958 -0.017185422 -0.01685383 -0.018228723 -0.018109554 -0.011564025
0.0005757451 0.014140579 0.020724535 0.031130292 0.04643801 0.06283389 0.08021485 0.09605298
0.10752423 0.0972883 0.06578803 0.037601683 0.0089118695 -0.021545978 -0.041073482 -0.048834793
-0.05673919 -0.05949651 -0.05744205 -0.052747235 -0.047982257 -0.04349966 -0.034280866 -0.029590974
-0.031311188 -0.030991085 -0.0258863 -0.018840212 -0.008117154 0.012782746 0.030985683 0.046090234
0.05832498 0.062462904 0.061170366 0.05618725 0.053215757 0.049603827 0.034918994 0.01922976
0.0034369319 -0.010322407 -0.018564817 -0.023461603 -0.024778623 -0.023936259 -0.032588605 -0.046818238
00000000: 734c d53a 59bb ceba fb46 92bb afd7 d0bb
00000010: d216 c3bb d92b 8fba 8710 e63b 67e8 3d3c
00000020: 3758 4b3c b0b7 253c 837d 053c fb4d 273b
00000030: 25ca 9cbb 8dce 8cbb 13a0 f9bb a205 52bc
00000040: 8c4a 7abc 5616 7fbc 1a43 88bc a352 25bc
00000050: b34d d4bb 264a 973a 29f9 ff39 565b 02ba
00000060: f877 173a 6996 12bb 073f f0ba 0259 663b
00000070: 5e35 313c 687f 9d3c dd72 cb3c e579 c63c
00000080: 725a ce3c 07fb a23c 0ee7 9b3c 93ef 673c
00000090: 0901 c939 452b 25bc b8d8 d5bc 81e4 09bd
000000a0: 821a 1abd 94f8 22bd df57 9fbc eb9d 89ba
000000b0: ea5a 8d3b 7e49 293c fab0 093c 8533 ab3b
000000c0: 8210 75bb 9627 1fbc b26f 70bc 9ecb 90bc
000000d0: 6dfc c1bc 475d c7bc 4c12 c7bc c460 cfbc
000000e0: ec17 a1bc 3783 40bc 1ea4 173b 837f 1c3c
000000f0: 8ba7 913c 98f4 033d 3ddd 3b3d f68a 783d
00000100: a123 963d 431b a93d 78b3 ab3d cf92 773d
00000110: ccbe 233d 1ded aa3c 4a92 8238 1225 9bbc
00000120: 29b5 c3bc 2c5a fdbc 124f 13bd 2262 17bd
00000130: 7b2f 19bd 8b47 10bd aea7 15bd f467 08bd
00000140: 4069 f8bc 4c52 0bbd 2c5d 12bd cb33 0dbd
00000150: 498f debc 43bb b3bc 46d7 adbb 10c8 3a3c
00000160: de1d c93c a30f 1a3d 2964 3c3d 80c5 493d
00000170: 07b0 513d 054d 4a3d 617b 5d3d 971d 3e3d
00000180: a415 1a3d f85f df3c 92d5 873c 325d fc3b
00000190: 1459 a83a ba3a c9bb e29e 38bc 1ffc afbc
000001a0: a3f4 27bd f1fe 65bd 8b96 8dbd 3e6c a6bd
000001b0: b101 b1bd dc67 acbd 55db 8ebd ea5d 5dbd
000001c0: 66f8 14bd 1854 6bbc f30f bd3b be95 013d
000001d0: 37d9 653d 25c7 993d d02a bb3d b527 c93d
000001e0: 61b8 d23d bb6c d63d dc56 c83d 19ac be3d
000001f0: 98bd 9f3d dc0b 593d c500 a33c a146 87bc
00000200: 1fd4 47bd c749 a7bd 2ba7 e9bd 2b31 0cbe
00000210: f053 20be 09c8 2bbe 81f1 1dbe be02 d3bd
00000220: 8772 29bd 6750 d4bc 7439 70bc ff87 9cbb
00000230: f4d7 123b 9d3a 833c 5dba 093d b0f4 663d
00000240: 2db5 b43d 2a77 093e 7fbe 3f3e 5fd9 7d3e
00000250: d84c a03e ceb5 c53e 1a78 743c 71c9 093c
00000260: 8fe3 963a c66d afbb 7a3a 21bc dd7a 1abc
00000270: f5c9 09bb 5d72 ee3b da85 4a3c e5c2 583c
00000280: 7bc3 403c 1ec4 0a3c 9079 ceb9 1cd5 d7bb
00000290: 0297 1bbc 2a45 77bc 8205 a6bc 2985 b5bc
000002a0: e739 c1bc e0d4 a6bc 0c12 40bc 2af8 18bb
000002b0: bcd0 cf3b d796 cd3b 437b e53b 3fac d23b
000002c0: 79e4 583b ab7a a03b 2d3b 453c 18d3 b83c
000002d0: 9b5d 073d 982e 1a3d da78 1a3d 6d10 0f3d
000002e0: 613b eb3c ba61 d23c b316 583c 402f a7bb
000002f0: cbe5 cdbc ff31 3ebd f370 6fbd 1c85 8cbd
00000300: c60b 80bd 15e3 0abd 638f 5ebc 04de 20bb
00000310: 3fd7 b93b 4c0c ce3b 65f7 483b a003 7abb
00000320: d6d6 06bc 6600 32bc 4d71 62bc 71c8 8cbc
00000330: 0b11 8abc 6754 95bc 7d5a 94bc 0977 3dbc
00000340: 9aed 163a e3ad 673c 80c6 a93c f404 ff3c
00000350: c835 3e3d 0eaf 803d af47 a43d 6db7 c43d
00000360: aa35 dc3d 173f c73d e0bb 863d 3904 1a3d
00000370: 1703 123c 3181 b0bc ab3c 28bd fe06 48bd
00000380: 5a67 68bd 9db2 73bd 5b48 6bbd 7c0d 58bd
00000390: 0b89 44bd b32c 32bd 186a 0cbd c568 f2bc
000003a0: 2940 00bd 04e1 fdbc 810f d4bc ca56 9abc
000003b0: d0fd 04bc b96e 513c b0d5 fd3c 1dc9 3c3d
000003c0: 2de6 6e3d 1ad9 7f3d c78d 7a3d 9a24 663d
000003d0: c4f8 593d 622d 4b3d 3807 0f3d bb87 9d3c
000003e0: 263e 613b 501f 29bc 3e15 98bc 8c32 c0bc
000003f0: 8afc cabc f915 c4bc a17b 05bd 7bc4 3fbd

Linear_Trend.1.bias f4 [200]
0.017184082 0.029543145 0.040929876 0.044296052 0.052544966 0.054468013 0.060452 0.06705315
0.071212985 0.07781205 0.08560569 0.08313775 0.09050954 0.096420795 0.09915658 0.0998059
0.10552516 0.10975365 0.11580695 0.11983964 0.119059004 0.11975628 0.124947175 0.12499125
0.13072072 0.13316931 0.13440877 0.13427736 0.13675833 0.13768204 0.13850515 0.14137274
0.14361387 0.13998838 0.1435369 0.14931305 0.14777346 0.14829251 0.14799757 0.15251563
0.15567507 0.1498092 0.14815451 0.1500182 0.14996265 0.1533044 0.15583165 0.1540524
0.15837815 0.16075398 0.16035539 0.15601517 0.1595027 0.16050182 0.1611303 0.16366139
0.1672342 0.1678224 0.16958824 0.1742414 0.17292482 0.17322941 0.18026529 0.18027978
0.17781979 0.17790543 0.18146722 0.18052931 0.18228851 0.18021382 0.1817109 0.18586794
0.19124909 0.19240081 0.19073503 0.19081303 0.19244134 0.19337375 0.19551434 0.19353974
0.19337742 0.19462445 0.19811855 0.19658686 0.19798212 0.2025881 0.20547444 0.20812091
0.21174225 0.2130001 0.21678357 0.21834828 0.22085649 0.22360663 0.22125943 0.22386162
0.22777906 0.2315434 0.23826845 0.2417529 0.24390621 0.25043634 0.25063035 0.25164238
0.25520527 0.25986892 0.2685403 0.2671105 0.27282447 0.27280906 0.2757326 0.2777176
0.2799091 0.28341255 0.28121337 0.2870283 0.2876284 0.2907723 0.2933501 0.29206747
0.2947835 0.2920218 0.292565 0.29462212 0.29310197 0.294751 0.29085314 0.2920243
0.29166713 0.29261988 0.29479045 0.292964 0.29102346 0.29282442 0.29570743 0.2919791
0.288048 0.28698805 0.28658494 0.28652394 0.28708947 0.28820172 0.28840503 0.29442465
0.29719988 0.2939166 0.29264468 0.29454368 0.2933186 0.29198512 0.2942735 0.29431152
0.2961088 0.30153248 0.30369386 0.30595955 0.30693865 0.3087665 0.3096771 0.30974677
0.31042835 0.31128567 0.31139168 0.31648824 0.3161607 0.3143419 0.31826484 0.32146817
0.32052782 0.32236934 0.3219074 0.32041764 0.3208011 0.32097164 0.31911382 0.31745976
0.31839582 0.31761327 0.31558007 0.3208421 0.32162637 0.32073566 0.32486987 0.32652423
0.33176154 0.33187228 0.3306357 0.33289137 0.334076 0.331418 0.3373433 0.33929548
0.34384277 0.34737134 0.3507005 0.35217476 0.35540563 0.3601903 0.36582327 0.36729842
00000000: a2c5 8c3c 7704 f23c 16a6 273d c76f 353d
00000010: 6439 573d da19 5f3d 849c 773d 2953 893d
00000020: 1dd8 913d ed5b 9f3d 0952 af3d 2044 aa3d
00000030: 115d b93d 4478 c53d 9b12 cb3d 0967 cc3d
00000040: 931d d83d 86c6 e03d 322c ed3d 7c6e f53d
00000050: 35d5 f33d c842 f53d 4ee4 ff3d 6afb ff3d
00000060: a7db 053e 895d 083e 74a2 093e 0180 093e
00000070: 600a 0c3e 85fc 0c3e 4bd4 0d3e 04c4 103e
00000080: 840f 133e 1d59 0f3e 56fb 123e 85e5 183e
00000090: ed51 173e fed9 173e ad8c 173e 0f2d 1c3e
000000a0: 4969 1f3e 9567 193e d1b5 173e 5f9e 193e
000000b0: cf8f 193e d4fb 1c3e 5592 1f3e eabf 1d3e
000000c0: e22d 223e b19c 243e 3434 243e 71c2 1f3e
000000d0: ad54 233e 975a 243e 57ff 243e da96 273e
000000e0: 713f 2b3e a3d9 2b3e 8aa8 2d3e 566c 323e
000000f0: 3413 313e 0d63 313e 7797 383e 439b 383e
00000100: 6416 363e d72c 363e 8bd2 393e addc 383e
00000110: d7a9 3a3e f989 383e 6c12 3a3e 2a54 3e3e
00000120: cdd6 433e b804 453e 0b50 433e 7e64 433e
00000130: 580f 453e c503 463e e934 483e 482f 463e
00000140: bb04 463e a24b 473e 97df 4a3e 114e 493e
00000150: d3bb 4a3e 4173 4f3e e467 523e a61d 553e
00000160: f6d2 583e b31c 5a3e 83fc 5d3e b196 5f3e
00000170: 3428 623e 23f9 643e d591 623e fb3b 653e
00000180: ea3e 693e b719 6d3e a5fc 733e 128e 773e
00000190: 8dc2 793e 3139 803e 9f52 803e 45d7 803e
000001a0: 44aa 823e 8a0d 853e 1d7e 893e b5c2 883e
000001b0: a6af 8b3e a1ad 8b3e d32c 8d3e 0031 8e3e
000001c0: 3f50 8f3e 731b 913e 33fb 8f3e 60f5 923e
000001d0: 0844 933e 1be0 943e fc31 963e de89 953e
000001e0: dded 963e e283 953e 14cb 953e b6d8 963e
000001f0: 7611 963e 9ae9 963e b4ea 943e 3684 953e
00000200: 6555 953e 46d2 953e c6ee 963e 61ff 953e
00000210: 0701 953e 15ed 953e f766 973e 497e 953e
00000220: 077b 933e 19f0 923e 43bb 923e 44b3 923e
00000230: 64fd 923e 2d8f 933e d3a9 933e d4be 963e
00000240: 952a 983e 3d7c 963e 86d5 953e 6ece 963e
00000250: db2d 963e 137f 953e 04ab 963e 00b0 963e
00000260: 939b 973e 7762 9a3e c37d 9b3e bba6 9c3e
00000270: 1027 9d3e a516 9e3e ff8d 9e3e 2197 9e3e
00000280: 77f0 9e3e d660 9f3e bb6e 9f3e bf0a a23e
00000290: d1df a13e 6cf1 a03e 9cf3 a23e 7a97 a43e
000002a0: 391c a43e 980d a53e 0cd1 a43e c80d a43e
000002b0: 0b40 a43e 6556 a43e e362 a33e 168a a23e
000002c0: c704 a33e 359e a23e b693 a13e 6a45 a43e
000002d0: 36ac a43e 7737 a43e 5855 a63e 2f2e a73e
000002e0: a6dc a93e 2aeb a93e 1549 a93e bd70 aa3e
000002f0: 020c ab3e 9faf a93e 43b8 ac3e 23b8 ad3e
00000300: 290c b03e a8da b13e 048f b33e 4050 b43e
00000310: baf7 b53e dd6a b83e 304d bb3e 8a0e bc3e

Linear_Trend.2.weight f4 [200, 150]
-0.039496075 -0.011389208 0.007249472 0.020037988 0.025680352 0.02414349 0.018149951 0.009492917
-0.0020987198 -0.011785643 -0.022382606 -0.027781568 -0.025074184 -0.016966013 -0.011705815 -0.0056482214
0.0011401403 0.008071342 0.015964467 0.019064642 0.023682093 0.021259187 0.013071034 0.006384095
-0.005199655 -0.010705253 -0.013315256 -0.007555762 -0.006453975 -0.008918894 -0.005516748 -0.004303866
-0.0033178774 -0.00023701518 -0.0015388032 -0.0015663217 -0.009867562 -0.01526721 -0.016036192 -0.018911108
-0.020762214 -0.012938674 0.009046508 0.029941082 0.045919552 0.05318322 0.05314668 0.048172873
0.043149754 0.028884636 -5.495944e-05 -0.021627974 -0.04180415 -0.060122054 -0.07062759 -0.08167787
-0.086990945 -0.08417363 -0.071925096 -0.057506673 -0.03231594 0.0028498613 0.036504835 0.066566445
0.091730766 0.11354927 0.1212693 0.112613685 0.0934665 0.07397828 0.05627244 0.047032256
0.03193464 0.008430129 -0.011334868 -0.013707696 -0.027233869 -0.051593572 -0.06925857 -0.08326608
-0.093035564 -0.096812785 -0.097881675 -0.09733226 -0.087117486 -0.06765122 -0.045276556 -0.014944056
0.020692362 0.049037937 0.0762203 0.09773422 0.10774447 0.11667938 0.11829585 0.111979775
0.09745086 0.080974124 0.06367842 0.04164188 0.014778959 -0.010732054 -0.033939026 -0.058340076
-0.083833106 -0.10163616 -0.120497055 -0.1313843 -0.13424169 -0.12494365 -0.10846319 -0.08558637
-0.06457842 -0.035243023 0.0038203562 0.043099917 0.08070351 0.11270601 0.13809703 0.15202105
0.16217273 0.16623427 0.16026808 0.14251561 0.11700485 0.07600701 0.023405887 -0.015471697
-0.05734138 -0.09984559 -0.14762259 -0.18300037 -0.20889916 -0.22732744 -0.22129256 -0.16575573
-0.08674279 -0.037346374 -0.010905376 0.0030646592 0.00894453 0.011546274 0.019146517 0.035942364
0.06946774 0.116879314 0.1819297 0.2711097 0.37925524 0.5099892 -0.06267148 -0.025911111
0.00018069138 0.017903635 0.03007432 0.0344746 0.032150235 0.025909988 0.016059639 0.0046894923
-0.006711878 -0.017917143 -0.022266913 -0.020272978 -0.022281412 -0.022065427 -0.018561704 -0.013056008
-0.0046743136 0.0032578357 0.010151026 0.015727822 0.013552097 0.0082027055 7.48879e-05 -0.0091135595
-0.011639239 -0.0061646937 0.0038478342 0.0066246376 0.009904492 0.01670234 0.02041353 0.024306033
0.025745573 0.022415733 0.01266526 -0.0047659664 -0.017641764 -0.028885487 -0.043236718 -0.052015804
-0.04049465 -0.013003137 0.012089879 0.031045206 0.040977724 0.04287615 0.04358791 0.04120938
0.021338971 -0.0071347747 -0.029039789 -0.04974111 -0.06478335 -0.075582586 -0.08597412 -0.0885184
-0.07990095 -0.06461982 -0.043187443 -0.0074847923 0.035722323 0.0753213 0.10885625 0.13696995
0.15519994 0.1521743 0.12871167 0.09588225 0.06366203 0.0398035 0.02229875 -0.003195564
-0.032107733 -0.04324804 -0.0421152 -0.056673802 -0.07608211 -0.088339515 -0.09599589 -0.099674195
-0.096728146 -0.09436153 -0.08681527 -0.06778179 -0.044099316 -0.015685104 0.021863822 0.058272105
0.08805481 0.11340521 0.12681577 0.13108613 0.13132374 0.122246854 0.10297123 0.07827765
0.05404114 0.02971516 0.0009789444 -0.02832117 -0.0514782 -0.07149471 -0.092578866 -0.10974929
00000000: a3c6 21bd cd99 3abc fb8c ed3b b526 a43c
00000010: 9a5f d23c 91c8 c53c 35af 943c 2e88 1b3c
00000020: ad8a 09bb 9218 41bc ba5b b7bc 2c96 e3bc
00000030: 6068 cdbc 4ffc 8abc bfc9 3fbc b714 b9bb
00000040: c370 953a a93d 043c eac7 823c 742d 9c3c
00000050: f300 c23c bf27 ae3c e427 563c ac31 d13b
00000060: de61 aabb 1665 2fbc 3b28 5abc 5396 f7bb
00000070: de7b d3bb 8e20 12bc d6c5 b4bb 7207 8dbb
00000080: bf70 59bb 4787 78b9 abb1 c9ba 094d cdba
00000090: 8eab 21bc 5223 7abc 555e 83bc 78eb 9abc
000000a0: 8515 aabc bbfc 53bc ce37 143c 0047 f53c
000000b0: 2416 3c3d a6d6 593d 55b0 593d eb50 453d
000000c0: ccbd 303d 799f ec3c 4084 66b8 262d b1bc
000000d0: d43a 2bbd 8b42 76bd 33a5 90bd ba46 a7bd
000000e0: 4f28 b2bd 3963 acbd 774d 93bd 1e8c 6bbd
000000f0: b85d 04bd bdc4 3a3b 1886 153d fd53 883d
00000100: 57dd bb3d 858c e83d 0a5c f83d 01a2 e63d
00000110: 5d6b bf3d ed81 973d ee7d 663d e5a4 403d
00000120: e6cd 023d 861e 0a3c e2b5 39bc 3f96 60bc
00000130: 9019 dfbc c853 53bd 70d7 8dbd 6887 aabd
00000140: 6e89 bebd c845 c6bd 3076 c8bd 2356 c7bd
00000150: a76a b2bd b98c 8abd e973 39bd ead7 74bc
00000160: 0783 a93c 01dc 483d 6319 9c3d e128 c83d
00000170: 22a9 dc3d 99f5 ee3d 1845 f23d a755 e53d
00000180: 5194 c73d c3d5 a53d d569 823d ad90 2a3d
00000190: 7223 723c 7fd5 2fbc a603 0bbd 01f6 6ebd
000001a0: b1b0 abbd 9e26 d0bd 29c7 f6bd 9b89 06be
000001b0: a776 09be 75e2 ffbd f321 debd e847 afbd
000001c0: b141 84bd fd5a 10bd f15e 7a3b 8a89 303d
000001d0: e247 a53d 69d2 e63d 4f69 0d3e 68ab 1b3e
000001e0: 9c10 263e 5139 2a3e 511d 243e 9def 113e
000001f0: 3da0 ef3d 90a9 9b3d b4bd bf3c 007d 7dbc
00000200: cbde 6abd d87b ccbd 602a 17be 7364 3bbe
00000210: a9e9 55be 86c8 68be 849a 62be dfbb 29be
00000220: 34a6 b1bd 83f8 18bd 76ac 32bc 73d8 483b
00000230: 148c 123c 952c 3d3c 28d9 9c3c 4d38 133d
00000240: 1a45 8e3d 6c5e ef3d c74b 3a3e e4ce 8a3e
00000250: be2d c23e a78e 023f e859 80bd 8a43 d4bc
00000260: f977 3d39 a5aa 923c 6c5e f63c 3d35 0d3d
00000270: f7af 033d 2f41 d43c 818f 833c 50aa 993b
00000280: 50ef dbbb f9c6 92bc 1a69 b6bc 8413 a6bc
00000290: 8287 b6bc 8ec2 b4bc b70e 98bc dee8 55bc
000002a0: fc2a 99bb 6a81 553b 7d50 263c a2d7 803c
000002b0: 9d09 5e3c a464 063c 230d 9d38 0a51 15bc
000002c0: 82b2 3ebc 3301 cabb f22b 7c3b 7d13 d93b
000002d0: 7346 223c 59d3 883c 463a a73c 721d c73c
000002e0: 61e8 d23c 33a1 b73c f381 4f3c d32b 9cbb
000002f0: 7685 90bc 42a1 ecbc fc18 31bd 860e 55bd
00000300: b8dd 25bd 1c0b 55bc a114 463c 8452 fe3c
00000310: 42d8 273d e79e 2f3d 3c89 323d 2bcb 283d
00000320: 11cf ae3c d4ca e9bb dae4 edbc 56bd 4bbd
00000330: 22ad 84bd 0bcb 9abd 3313 b0bd 2349 b5bd
00000340: 1ca3 a3bd 6557 84bd 51e5 30bd fd42 f5bb
00000350: 9251 123d 0e42 9a3d 07f0 de3d da41 0c3e
00000360: bcec 1e3e 94d3 1b3e fecc 033e ea5d c43d
00000370: 3d61 823d ff08 233d deab b63c ab6c 51bb
00000380: 6683 03bd db24 31bd fd80 2cbd ca22 68bd
00000390: f0d0 9bbd 59eb b4bd 7e99 c4bd fc21 ccbd
000003a0: 6819 c6bd 9e40 c1bd 34cc b1bd 2ed1 8abd
000003b0: 7ca1 34bd 0c7e 80bc c21b b33c bbae 6e3d
000003c0: 1556 b43d fe40 e83d fedb 013e 713b 063e
000003d0: bb79 063e 8f5c fa3d 95e2 d23d 0850 a03d
000003e0: 3e5a 5d3d 356d f33c ec4f 803a cc01 e8bc
000003f0: ceda 52bd d26b 92bd fd99 bdbd 3cc4 e0bd

Linear_Trend.2.bias f4 [200]
0.0671599 0.11638914 0.15855269 0.20290564 0.25164753 0.2959642 0.3392719 0.38030994
0.42185345 0.4610444 0.4987637 0.5407775 0.57831615 0.6118118 0.64754903 0.67872685
0.71014655 0.7382309 0.7632479 0.789032 0.8116966 0.8333219 0.8520772 0.867353
0.88092285 0.8923501 0.9017257 0.9086411 0.9123678 0.91817933 0.91821873 0.91802883
0.91755754 0.9164072 0.90819114 0.8984234 0.89155126 0.8785199 0.86631954 0.8514601
0.8419694 0.8331883 0.82085156 0.8152161 0.8140312 0.8114248 0.80894095 0.81195545
0.81158465 0.8097889 0.810306 0.8089806 0.8108881 0.81229544 0.813882 0.81438583
0.81361514 0.8145042 0.81452733 0.81551844 0.8188069 0.8152765 0.8145365 0.81136
0.8083535 0.80758345 0.8034612 0.80305076 0.800311 0.798147 0.7966685 0.7970606
0.7942956 0.7984761 0.7988201 0.7937544 0.7968461 0.79558206 0.79462343 0.7906364
0.78904 0.79104304 0.7900702 0.7901015 0.7924698 0.79346555 0.7971753 0.8017309
0.79946125 0.8067064 0.813265 0.81946516 0.82576394 0.83213264 0.8457496 0.8607027
0.8820343 0.90634114 0.9271204 0.9552831 0.9801473 1.0066355 1.0315821 1.0584596
1.0852926 1.1093476 1.1335493 1.1561062 1.1765085 1.1963856 1.2157001 1.2320657
1.248638 1.2642796 1.2740333 1.2850509 1.2955693 1.3033206 1.3093886 1.3116947
1.3118212 1.3109574 1.3112705 1.3041011 1.2999797 1.2947326 1.2874572 1.2785544
1.2681546 1.2545176 1.2425768 1.2288803 1.2144561 1.1976482 1.1801031 1.16312
1.1496075 1.1349586 1.1193432 1.113156 1.1034524 1.1008554 1.0937474 1.0892754
1.0896153 1.0879014 1.0857676 1.080305 1.0773311 1.0783192 1.0782725 1.0768906
1.0761572 1.0759279 1.0731001 1.0727417 1.0678202 1.0681622 1.0649545 1.0652571
1.06556 1.061154 1.0601352 1.0616609 1.0624716 1.0594182 1.0621822 1.0633262
1.06566 1.0682945 1.0735565 1.0764258 1.0780773 1.0809427 1.0802753 1.0808735
1.084055 1.0798626 1.0827434 1.0829527 1.084449 1.082004 1.0850222 1.0868123
1.0878254 1.092984 1.0956923 1.0986676 1.1027869 1.1110071 1.1243608 1.1347954
1.1518548 1.1730331 1.1931715 1.2152766 1.2386165 1.2579038 1.2771543 1.2962085
00000000: 218b 893d 6e5d ee3d a35b 223e 7fc6 4f3e
00000010: f2d7 803e 9f88 973e 0cb5 ad3e fcb7 c23e
00000020: 2dfd d73e 030e ec3e f55d ff3e 6570 0a3f
00000030: 870c 143f b39f 1c3f c6c5 253f 0bc1 2d3f
00000040: 2acc 353f b3fc 3c3f 3764 433f 00fe 493f
00000050: 59cb 4f3f 9654 553f bb21 5a3f d90a 5e3f
00000060: 2984 613f 0e71 643f 7fd7 663f b49c 683f
00000070: f090 693f cd0d 6b3f 6210 6b3f f003 6b3f
00000080: 0de5 6a3f aa99 6a3f 377f 683f 13ff 653f
00000090: b43c 643f aee6 603f 1ec7 5d3f 4af9 593f
000000a0: 4e8b 573f d44b 553f 5423 523f 01b2 503f
000000b0: 5964 503f 89b9 4f3f c116 4f3f 50dc 4f3f
000000c0: 03c4 4f3f 534e 4f3f 3770 4f3f 5a19 4f3f
000000d0: 5d96 4f3f 98f2 4f3f 925a 503f 977b 503f
000000e0: 1549 503f 5983 503f dd84 503f d1c5 503f
000000f0: 549d 513f f6b5 503f 7785 503f 4ab5 4f3f
00000100: 41f0 4e3f cabd 4e3f a2af 4d3f bc94 4d3f
00000110: 2fe1 4c3f 5d53 4c3f 78f2 4b3f 2a0c 4c3f
00000120: f556 4b3f ee68 4c3f 797f 4c3f 7d33 4b3f
00000130: 1bfe 4b3f 44ab 4b3f 716c 4b3f 2667 4a3f
00000140: 87fe 493f cc81 4a3f 0a42 4a3f 1844 4a3f
00000150: 4ddf 4a3f 8f20 4b3f ae13 4c3f 3c3e 4d3f
00000160: 7ea9 4c3f 5084 4e3f 2332 503f 78c8 513f
00000170: 4465 533f a506 553f 0c83 583f 0357 5c3f
00000180: 00cd 613f f905 683f c357 6d3f 6f8d 743f
00000190: efea 7a3f 6fd9 803f e20a 843f 9b7b 873f
000001a0: deea 8a3f 1aff 8d3f 2518 913f 4afb 933f
000001b0: d597 963f 2a23 993f 109c 9b3f 54b4 9d3f
000001c0: 5fd3 9f3f ead3 a13f 8613 a33f 8c7c a43f
000001d0: 37d5 a53f 36d3 a63f 0c9a a73f 9de5 a73f
000001e0: c2e9 a73f 74cd a73f b6d7 a73f c9ec a63f
000001f0: bc65 a63f ccb9 a53f 66cb a43f aca7 a33f
00000200: e452 a23f 0894 a03f c20c 9f3f f34b 9d3f
00000210: 4c73 9b3f 894c 993f 9e0d 973f 1ee1 943f
00000220: 5726 933f 5346 913f a346 8f3f e57b 8e3f
00000230: ee3d 8d3f d4e8 8c3f eaff 8b3f 606d 8b3f
00000240: 8478 8b3f 5a40 8b3f 6ffa 8a3f 6f47 8a3f
00000250: fce5 893f 5d06 8a3f d504 8a3f 8dd7 893f
00000260: 85bf 893f 01b8 893f 585b 893f 9a4f 893f
00000270: 55ae 883f 8ab9 883f 6e50 883f 585a 883f
00000280: 4564 883f e5d3 873f 83b2 873f 81e4 873f
00000290: 12ff 873f 049b 873f 96f5 873f 131b 883f
000002a0: 8c67 883f e0bd 883f 4d6a 893f 52c8 893f
000002b0: 70fe 893f 555c 8a3f 7646 8a3f 105a 8a3f
000002c0: 50c2 8a3f f038 8a3f 5697 8a3f 329e 8a3f
000002d0: 3acf 8a3f 1b7f 8a3f 02e2 8a3f aa1c 8b3f
000002e0: dd3d 8b3f e6e6 8b3f a53f 8c3f 24a1 8c3f
000002f0: 1f28 8d3f 7b35 8e3f 0eeb 8f3f fa40 913f
00000300: fa6f 933f f325 963f d8b9 983f 2f8e 9b3f
00000310: fc8a 9e3f fe02 a13f cb79 a33f 29ea a53f

Linear_Trend.3.weight f4 [200, 150]
0.0067970417 0.0021106165 -0.0037751235 -0.0089611495 -0.012310833 -0.004651296 0.006970106 0.013844635
0.017302394 0.0126798535 0.011716861 0.0034869937 -0.0064175436 -0.00668465 -0.0039879116 -0.010042651
-0.013901302 -0.01576446 -0.012300612 -0.0062007126 0.0010254658 0.009426182 0.0064087077 -0.0033657057
0.0011689215 -0.003445608 -0.00727329 -0.0036943103 0.0038433655 0.012848882 0.014321319 0.016203625
0.01993971 0.013825264 0.016744228 0.009843393 -0.004139679 -0.015705455 -0.031491682 -0.04069938
-0.044766985 -0.041490212 -0.009350657 0.0155129405 0.02671178 0.02848333 0.019965624 0.010905571
0.0050522573 -0.007578179 -0.016671741 -0.022758983 -0.02796898 -0.031561423 -0.02867762 -0.027352298
-0.025698017 -0.021023616 -0.010032056 -0.008216435 0.00060376443 0.020540968 0.03769307 0.05282113
0.07159831 0.0952715 0.105211094 0.07663088 0.050390866 0.029065501 0.0055785235 -0.0146019915
-0.021187082 -0.030172411 -0.033941127 -0.03693396 -0.034380566 -0.032530446 -0.03682995 -0.031173656
-0.031689726 -0.041326705 -0.04678135 -0.046868812 -0.03533402 -0.028181663 -0.016817119 0.002513467
0.023499513 0.040418614 0.04504249 0.048416123 0.052792583 0.05353854 0.056005962 0.04790947
0.04375284 0.03700142 0.027792066 0.01780029 0.006730843 -0.00023699782 -0.010121415 -0.019484108
-0.047596812 -0.065983385 -0.08106669 -0.09099346 -0.096222766 -0.09158143 -0.07960756 -0.0611168
-0.04065358 -0.01715878 0.004836338 0.030652374 0.060473487 0.07782311 0.091501474 0.101635486
0.11153161 0.11151917 0.10639697 0.10588154 0.091438614 0.0658237 0.026219528 -0.01658147
-0.052014887 -0.08919704 -0.12095756 -0.14708859 -0.17234625 -0.18681353 -0.17277174 -0.10383882
-0.020622732 -0.006339822 0.000216872 0.0030872964 0.009027982 0.009880293 0.024617268 0.046062566
0.07699359 0.121587045 0.18090126 0.24486747 0.31337714 0.3958865 0.016005367 0.010181528
0.0015297089 -0.00810612 -0.017096758 -0.018459246 -0.0062059076 0.008247167 0.017750863 0.020685315
0.0185836 0.015491403 0.003475686 -0.005505884 -0.008031552 -0.010400909 -0.01918938 -0.025207771
-0.026636383 -0.02017753 -0.01003467 0.0035226585 0.012665744 0.006241105 0.0020622925 0.005718445
0.00037863015 -0.0017669265 0.0049434146 0.017121622 0.026540048 0.029045852 0.032980718 0.031695955
0.02615801 0.02468261 0.009577623 -0.010595102 -0.03174426 -0.054315824 -0.06963263 -0.07877734
-0.06304387 -0.02114948 0.0087544015 0.023334907 0.024624588 0.015894525 0.009552473 0.002252774
-0.010556298 -0.018460954 -0.022575358 -0.02686629 -0.026301268 -0.021397477 -0.019124705 -0.015894968
-0.0065053273 0.0024053422 0.004530541 0.018593272 0.04071907 0.058687504 0.07643225 0.10294397
0.13105038 0.12529135 0.084529445 0.04849609 0.0149481855 -0.019931642 -0.042790245 -0.054334395
-0.063592955 -0.06637836 -0.06377086 -0.055339538 -0.050564934 -0.044632386 -0.03253775 -0.03228903
-0.03891813 -0.040806018 -0.032894567 -0.019125683 -0.00995539 0.0059256554 0.029206537 0.052701455
0.06475347 0.063076556 0.060820375 0.05742906 0.053265683 0.04500626 0.030698746 0.020322323
0.008319712 -0.0040127058 -0.015241221 -0.02252676 -0.024572311 -0.024532832 -0.03459334 -0.05625389
00000000: b8b9 de3b 4552 0a3b 1068 77bb c9d1 12bc
00000010: 60b3 49bc e669 98bb 7d65 e43b 9cd4 623c
00000020: c0bd 8d3c 29bf 4f3c 14f8 3f3c 0c86 643b
00000030: 424a d2bb e90a dbbb 07ad 82bb ee89 24bc
00000040: 49c2 63bc 7824 81bc 8288 49bc 592f cbbb
00000050: ec68 863a 4670 1a3c 2300 d23b 2c93 5cbb
00000060: 7f36 993a b6cf 61bb c754 eebb 3e1c 72bb
00000070: f9e0 7b3b 1e84 523c f7a3 6a3c 77bd 843c
00000080: 9a58 a33c 5c83 623c 312b 893c 2f46 213c
00000090: 25a6 87bb baa8 80bc 6cfd 00bd 65b4 26bd
000000a0: 965d 37bd a4f1 29bd 8033 19bc fd29 7e3c
000000b0: aad2 da3c df55 e93c f38e a33c 48ad 323c
000000c0: 688d a53b 5f52 f8bb 2d93 88bc 0c71 babc
000000d0: 341f e5bc 8d46 01bd 54ed eabc ed11 e0bc
000000e0: a684 d2bc b839 acbc 7e5d 24bc 3a9e 06bc
000000f0: f245 1e3a 8845 a83c 0c64 1a3d f85a 583d
00000100: 22a2 923d b41d c33d ea78 d73d a7f0 9c3d
00000110: a766 4e3d c61a ee3c 0ccc b63b 313d 6fbc
00000120: 8890 adbc 222c f7bc da05 0bbd 1048 17bd
00000130: a3d2 0cbd a53e 05bd 00db 16bd e55f ffbc
00000140: 16cd 01bd 3146 29bd cd9d 3fbd 83f9 3fbd
00000150: 68ba 10bd 3bdd e6bc 0ec4 89bc fbb8 243b
00000160: 0d82 c03c fd8d 253d 797e 383d fc4f 463d
00000170: 093d 583d 3a4b 5b3d 8266 653d b83c 443d
00000180: 2e36 333d cd8e 173d 30ac e33c ead1 913c
00000190: 678e dc3b 9e82 78b9 4bd4 25bc 239d 9fbc
000001a0: e0f4 42bd 4c22 87bd 4b06 a6bd c75a babd
000001b0: 7110 c5bd 0b8f bbbd 4a09 a3bd 9c55 7abd
000001c0: 5e84 26bd 9290 8cbc 257a 9e3b b01a fb3c
000001d0: 0cb3 773d b961 9f3d 2065 bb3d 4426 d03d
000001e0: af6a e43d 2a64 e43d a8e6 d93d 6cd8 d83d
000001f0: 2b44 bb3d 93ce 863d 56ca d63c ddd5 87bc
00000200: 900d 55bd f0ac b6bd 99b8 f7bd 649e 16be
00000210: 897b 30be 0c4c 3fbe 13eb 30be 72a9 d4bd
00000220: 01f1 a8bc 48be cfbb 2268 6339 3d54 4a3b
00000230: 1aea 133c f4e0 213c 27aa c93c 1aac 3c3d
00000240: d1ae 9d3d a102 f93d 2e3e 393e 8abe 7a3e
00000250: f872 a03e a3b1 ca3e b01d 833c 6cd0 263c
00000260: 8380 c83a 88cf 04bc 800e 8cbc d837 97bc
00000270: ed5a cbbb 201f 073c 426a 913c 4074 a93c
00000280: a23c 983c a7cf 7d3c 56c8 633b b46a b4bb
00000290: c596 03bc 9368 2abc 0c33 9dbc 8780 cebc
000002a0: 8b34 dabc 594b a5bc 7568 24bc 67dc 663b
000002b0: fb83 4f3c 2f82 cc3b 8727 073b cb61 bb3b
000002c0: e182 c639 3798 e7ba 5efc a13b a542 8c3c
000002d0: 846a d93c 91f1 ed3c ca16 073d 9ed3 013d
000002e0: 5349 d63c 2f33 ca3c 76eb 1c3c 1497 2dbc
000002f0: 4506 02bd 457a 5ebd 8d9b 8ebd 0456 a1bd
00000300: 251d 81bd ad41 adbc 9f6e 0f3c d928 bf3c
00000310: 81b9 c93c 3c35 823c fa81 1c3c 47a3 133b
00000320: 53f4 2cbc 6d3b 97bc f5ef b8bc b216 dcbc
00000330: c275 d7bc c349 afbc 6aab 9cbc 2a36 82bc
00000340: a42a d5bb f2a2 1d3b ef74 943b eb50 983c
00000350: 0ac9 263d 4f62 703d 8388 9c3d 4ad4 d23d
00000360: 1232 063e 604c 003e c61d ad3d d6a3 463d
00000370: 3ce9 743c af47 a3bc d344 2fbd be8d 5ebd
00000380: 063d 82bd 61f1 87bd 4c9a 82bd b6ab 62bd
00000390: 2d1d 4fbd 73d0 36bd 4e46 05bd 8041 04bd
000003a0: 9e68 1fbd 3624 27bd 74bc 06bd 77ad 9cbc
000003b0: ef1b 23bc 002c c23b 8c42 ef3c 7bdd 573d
000003c0: 789d 843d 482e 813d c91e 793d bc3a 6b3d
000003d0: 1e2d 5a3d 7c58 383d f07b fb3c 007b a63c
000003e0: 674f 083c 047d 83bb 50b6 79bc 0a8a b8bc
000003f0: df4b c9bc 14f9 c8bc bfb1 0dbd 7b6a 66bd

Linear_Trend.3.bias f4 [200]
0.005326613 0.0016073328 0.015115297 0.009823438 0.014360115 0.01464748 0.015989352 0.024592437
0.01945572 0.021638017 0.02655325 0.0207492 0.016465848 0.019695437 0.018618979 0.020778092
0.020782843 0.02980103 0.032233495 0.02998062 0.02678395 0.024370868 0.02645897 0.029353032
0.033850998 0.03417682 0.03474785 0.036450133 0.034747835 0.03604169 0.037126724 0.0406543
0.04504052 0.044324707 0.04679958 0.049065065 0.05076688 0.04335286 0.047119904 0.053877868
0.055652577 0.053865395 0.051964078 0.048708808 0.0499257 0.049581483 0.05226726 0.051634792
0.04985351 0.049060196 0.05472893 0.053306874 0.05374281 0.05467893 0.050736994 0.05149517
0.058298297 0.057564564 0.05870859 0.06062424 0.05851811 0.060951404 0.06307555 0.054485172
0.056644414 0.048634205 0.04868008 0.053160723 0.051330384 0.051461156 0.05144438 0.05061816
0.062370926 0.057185918 0.056235008 0.05337968 0.05089699 0.053705983 0.052588154 0.051599987
0.054473244 0.05652346 0.053707406 0.054067705 0.059056543 0.054502152 0.061154764 0.060703166
0.057430495 0.06116299 0.06319345 0.06278901 0.060246624 0.0555423 0.057765383 0.059191164
0.059139952 0.06332403 0.06892467 0.07099435 0.072431706 0.07743115 0.070424035 0.070179425
0.07065325 0.073855825 0.07635788 0.079473555 0.07753466 0.07384146 0.07968332 0.08121348
0.08149838 0.0816739 0.08409484 0.08631554 0.08512444 0.087586485 0.09064977 0.087332666
0.085798346 0.085461356 0.08626151 0.09045988 0.08710507 0.089249484 0.08345916 0.08996348
0.08979282 0.09005652 0.09469775 0.093627095 0.08955049 0.08729313 0.09367915 0.08971272
0.08779385 0.084887095 0.083609805 0.08465728 0.08414928 0.08620239 0.084297925 0.09232502
0.09597091 0.088918746 0.08693763 0.08681352 0.08942914 0.08162817 0.08114247 0.08370971
0.08525764 0.08751015 0.09079621 0.09022603 0.0909543 0.09512272 0.09562247 0.09838059
0.09800244 0.100335464 0.09386328 0.09378428 0.09211491 0.09632658 0.097214825 0.097784646
0.09725061 0.098641925 0.09769153 0.09936322 0.098086804 0.09922798 0.09035084 0.09111037
0.09639933 0.086484976 0.08654887 0.0940439 0.09436549 0.09077387 0.09683444 0.09890151
0.10040758 0.10126646 0.09838591 0.097209506 0.094812624 0.09654657 0.09900449 0.09960031
0.10296411 0.10320626 0.09870092 0.10335221 0.100945055 0.1062315 0.1088841 0.10509353
00000000: de8a ae3b 24ad d23a 27a6 773c 7cf2 203c
00000010: b046 6b3c fcfb 6f3c 1afc 823c 1476 c93c
00000020: 9a61 9f3c 3642 b13c 3486 d93c 3afa a93c
00000030: 63e3 863c 5358 a13c d486 983c d136 aa3c
00000040: c840 aa3c 4a21 f43c 4507 043d eb99 f53c
00000050: 046a db3c 6aa5 c73c 7bc0 d83c c575 f03c
00000060: 58a7 0a3d fefc 0b3d c353 0e3d bc4c 153d
00000070: bf53 0e3d 73a0 133d 3112 183d 2085 263d
00000080: 697c 383d d38d 353d ebb0 3f3d 73f8 483d
00000090: eff0 4f3d c592 313d cd00 413d 0aaf 5c3d
000000a0: f5f3 633d f6a1 5c3d 49d8 543d e382 473d
000000b0: e47e 4c3d f415 4b3d 3216 563d 017f 533d
000000c0: 3233 4c3d 58f3 483d 712b 603d 4f58 5a3d
000000d0: 6c21 5c3d 04f7 5f3d 98d1 4f3d 99ec 523d
000000e0: 32ca 6e3d d2c8 6b3d 6b78 703d 2051 783d
000000f0: b0b0 6f3d 2ea8 793d c12d 813d d82b 5f3d
00000100: f903 683d a934 473d c364 473d 0fbf 593d
00000110: cf3f 523d efc8 523d 58b7 523d fd54 4f3d
00000120: a878 7f3d c83b 6a3d ae56 663d a7a4 5a3d
00000130: 5d79 503d cefa 5b3d ad66 573d 825a 533d
00000140: 561f 5f3d 2585 673d 4cfc 5b3d 1976 5d3d
00000150: 46e5 713d a63d 5f3d 6b7d 7a3d e2a3 783d
00000160: 3d3c 6b3d 0b86 7a3d 916b 813d 8697 803d
00000170: 2ac5 763d 5380 633d 659b 6c3d 6f72 723d
00000180: bc3c 723d 07b0 813d 6128 8d3d 7c65 913d
00000190: 1357 943d 3994 9e3d 7a3a 903d 3bba 8f3d
000001a0: a7b2 903d b941 973d 8561 9c3d 08c3 a23d
000001b0: 7eca 9e3d 313a 973d 0231 a33d 4153 a63d
000001c0: 9fe8 a63d a544 a73d ea39 ac3d 34c6 b03d
000001d0: b955 ae3d 8b60 b33d 96a6 b93d 78db b23d
000001e0: 0bb7 af3d 5d06 af3d e0a9 b03d 0843 b93d
000001f0: 2564 b23d 6fc8 b63d a3ec aa3d c63e b83d
00000200: 4ce5 b73d 8e6f b83d e5f0 c13d 90bf bf3d
00000210: 3f66 b73d bec6 b23d dbda bf3d 4dbb b73d
00000220: 43cd b33d 49d9 ad3d 9e3b ab3d cc60 ad3d
00000230: 7556 ac3d e18a b03d 64a4 ac3d e614 bd3d
00000240: 658c c43d 081b b63d 5b0c b23d 49cb b13d
00000250: a026 b73d ac2c a73d 062e a63d ff6f ab3d
00000260: 8f9b ae3d 8638 b33d 5df3 b93d 6dc8 b83d
00000270: 3f46 ba3d b3cf c23d b7d5 c33d c37b c93d
00000280: 81b5 c83d ae7c cd3d 643b c03d f911 c03d
00000290: bea6 bc3d df46 c53d 9118 c73d 5143 c83d
000002a0: 542b c73d c704 ca3d 7f12 c83d f27e cb3d
000002b0: bce1 c83d 0a38 cb3d dc09 b93d 1398 ba3d
000002c0: 036d c53d 091f b13d 8940 b13d 179a c03d
000002d0: b242 c13d a7e7 b93d 2351 c63d e08c ca3d
000002e0: 7da2 cd3d ca64 cf3d 8d7e c93d c715 c73d
000002f0: 1f2d c23d 35ba c53d dec2 ca3d 3ffb cb3d
00000300: d9de d23d ce5d d33d b523 ca3d 53aa d33d
00000310: 48bc ce3d e78f d93d a1fe de3d 473b d73d
